gacha_model.tflite (tflite, 7184 bytes, 6 tensors)

arith.constant f4 [1, 16]
000000 5f b5 9d 3e 29 46 45 bf 88 43 2e 3f d6 69 17 bf
       0.30802438 -0.7706018 0.68071795 -0.5914587
000010 2e 9a 95 be 5d d6 17 3f 48 7a 04 3f 3b 43 00 3f
       -0.29219192 0.5931147 0.51749086 0.50102586
000020 4e d7 2f bf 38 d4 19 bf ab 27 c3 3e 6f 19 d1 be
       -0.68687904 -0.60089445 0.38116202 -0.40839717
000030 d1 b7 9d be dc 52 3d bf 83 00 a3 3e ce b6 05 3f
       -0.30804303 -0.7395456 0.31836328 0.5223206

arith.constant1 f4 [16, 32]
000000 0f 3f b1 3c 2e 82 b5 3e 81 f7 0f be 4a 33 bd be
       0.021636514 0.35450882 -0.14059259 -0.36953193
000010 a4 80 ba be 9e 57 8f 3e e7 3b 86 3e a1 4d ae be
       -0.3642627 0.27996534 0.26217577 -0.340436
000020 a2 2f 0f bd 3c ce 08 3e 4b 19 23 3e cf dc be 3e
       -0.034957536 0.13359922 0.15927617 0.3727784
000030 60 95 98 be 68 4e ea be 59 f2 03 bd 4c 6e 05 3e
       -0.29801464 -0.45762944 -0.032213543 0.13030356
000040 5c 3b 1b be ab 38 8e be 4f 72 28 3e 08 e2 6e be
       -0.15159363 -0.2777761 0.16449855 -0.23328412
000050 e5 70 84 be ed 96 b3 3d d5 86 54 3e c2 12 86 3d
       -0.25867382 0.08769021 0.2075456 0.065465465
000060 2b 25 3e 3e 02 15 f2 be 25 cb bb be 35 5d 9b 3e
       0.18568866 -0.47281653 -0.36678424 0.3034455
000070 d2 80 06 be d2 e0 0b bf 2c 7f 8a 3d 91 e2 e4 be
       -0.13135079 -0.54639924 0.06762537 -0.44704106
000080 4a b8 93 3e b9 3b 70 be ee 04 34 be 92 8f 15 3f
       0.2885154 -0.23460282 -0.17580006 0.58422196
000090 90 f2 72 3d 19 f6 78 3e 3b d5 17 bf 05 01 ef 3e
       0.059313357 0.24312629 -0.5930974 0.46680465
0000a0 3b 36 23 bf e7 42 db 3e e8 93 26 be 43 1d 2f bf
       -0.63754624 0.4282448 -0.1626736 -0.68404025
0000b0 0c e4 56 be 58 61 55 3e 7e f8 95 3e b6 92 f5 bd
       -0.2098543 0.20837915 0.29291147 -0.119908735
0000c0 c5 d2 07 3f 2f a3 97 3e b2 65 73 3e 37 ce 4f bf
       0.53055984 0.29616687 0.23769262 -0.81174034
0000d0 b8 1a 79 3e 4b 78 c8 3e e3 ff 4a 3d 6d 71 4f be
       0.24326599 0.39154276 0.04956044 -0.20258112
0000e0 4e 73 ca bd be e4 61 3f 26 e0 dd 3e c8 59 0b bf
       -0.09885274 0.8823966 0.43335074 -0.5443387
0000f0 62 7b 9d be 72 7b a8 3f 6f 0f 85 be fd 15 a4 3f
       -0.30758196 1.3162673 -0.25988337 1.281921
000100 ae 12 f6 3d 6b f3 a3 3e 61 5f 5e 3e 8b f5 6a be
       0.120152816 0.3202165 0.21716072 -0.2294523
000110 2a 01 95 be ac 07 8b be 4d 33 a4 3e 0a 74 c8 be
       -0.2910245 -0.2715429 0.3207039 -0.3915103
000120 ca 37 a2 3e f3 2b ad be d3 73 97 3e 33 b8 dd 3e
       0.3168319 -0.33822593 0.29580554 0.43304595
000130 a5 db 98 bc b7 d0 0f 3d 5a 5d e1 be ea 5e 24 3e
       -0.018659422 0.035111155 -0.44016534 0.16051832
000140 41 06 e1 be 31 5e 6b bd b7 96 1b 3e 7e 60 01 be
       -0.43950084 -0.057462875 0.15194212 -0.12634465
000150 83 f0 3b be 9e 28 10 3e e2 17 e6 be 88 69 db 3d
       -0.18353467 0.14077994 -0.44940096 0.10713488
000160 fd 1b ba bd c9 aa d4 3c 81 64 4d be c5 ce a4 3e
       -0.090873696 0.025960343 -0.2005787 0.32189003
000170 28 ca d7 be 6c 84 b8 be e7 cd d6 3e 8d 45 8c be
       -0.4214642 -0.3603853 0.41953966 -0.27396813
000180 22 a9 76 be a4 ed 43 3e 33 79 1f be 8b 9a ba 3e
       -0.24087957 0.19133621 -0.15573578 0.36446032
000190 0a a7 3b be 6b 2d c6 3e d7 3c 04 bf 43 c8 39 3e
       -0.18325439 0.38706526 -0.51655334 0.181428
0001a0 97 41 fa be dc 41 99 bc 70 85 91 be dd 89 53 bd
       -0.48878166 -0.018708162 -0.28422117 -0.05164515
0001b0 f4 64 af 3d d0 f5 40 be 66 30 51 3e ba f5 9c 3e
       0.08564177 -0.1884377 0.20428619 0.30656224
0001c0 ea 42 7a bc 1f 8f 12 3e 70 ba 7a 3e c3 0a d6 be
       -0.015274743 0.14312409 0.24485183 -0.41805086
0001d0 ab be 04 be ed 98 d4 3d bb 67 ed 3c fd 1a 82 3e
       -0.12963359 0.10380731 0.028980127 0.25411215
0001e0 9e f7 04 3e 0e fd 06 3f 14 32 c2 3e 4a 7a 43 be
       0.12985083 0.5272988 0.37928832 -0.19089618
0001f0 21 d5 16 be 00 dd ed 3e f7 be bd be d2 57 eb 3e
       -0.1472974 0.46457672 -0.37059757 0.4596544
000200 5f f5 8a bd 45 d6 74 3e 72 64 59 be a9 ba 0a 3f
       -0.06785082 0.23909862 -0.21229723 0.5419107
000210 7c 86 f8 bd 1b 5a 62 bd 77 9b 80 be c7 77 aa 3e
       -0.12135026 -0.055261713 -0.2511861 0.33294508
000220 4d 32 aa bb 4f 58 9c 3e d6 19 f8 bd dd a6 af be
       -0.0051939846 0.30536124 -0.12114303 -0.34306994
000230 82 81 bb 3e c8 c7 bb 3d 3d 73 20 be 5b 8a 5f 3e
       0.36622244 0.091689646 -0.1566896 0.21830122
000240 66 28 b8 3e a5 cc 70 3e 28 ce c0 be 0a 24 02 bf
       0.35968322 0.23515566 -0.37657285 -0.5083624
000250 8e 9e 46 be 13 b5 f8 3e 6d 6e f8 3e 75 25 ae 3d
       -0.19396421 0.4857565 0.48521748 0.08503238
000260 91 ce 18 3e e1 fe 9b 3f b0 fd ea 3e b0 24 2f bf
       0.14922549 1.2187158 0.45896673 -0.68415356
000270 8d 79 0e 3e f1 f4 c5 3f 6a 62 53 be f7 28 8f 3f
       0.13913555 1.5465375 -0.2064301 1.1184376
000280 13 9f 3c bd 51 e0 47 bc 34 8b b1 3e 59 dd 9a bd
       -0.046050142 -0.012199477 0.34676516 -0.0756175
000290 31 56 53 3d db ac 55 be 7a 0a 8f be 7d 83 eb bd
       0.05159587 -0.2086672 -0.2793768 -0.11499689
0002a0 69 30 f8 3d 48 61 a1 be 22 8d 13 bd ff 29 af bc
       0.121186085 -0.31519532 -0.036023267 -0.02138233
0002b0 7a 24 aa 3d e3 c2 7c be ff 60 36 bd 86 ab 52 be
       0.083077386 -0.24683718 -0.044526096 -0.20573243
0002c0 81 e4 72 be 51 d8 61 be 9c 29 19 3e eb 0f 8e 3e
       -0.2371998 -0.22055174 0.14957279 0.2774652
0002d0 86 9e 12 bd 2b a7 b1 3e 51 01 3f 3e 00 6f 1c bc
       -0.03579571 0.34697852 0.18652846 -0.009547949
0002e0 c3 a9 c5 3d 99 89 2f be 9c 6b ab 3e 66 dd bf bc
       0.0965152 -0.17142333 0.33480537 -0.023421
0002f0 23 66 96 3e d8 ce c3 bd 73 4c 8e be 06 c0 81 3e
       0.293748 -0.09560937 -0.277927 0.25341815
000300 3f 36 c3 be 4f 1d d1 3e ec 59 ae be a3 9f 8d be
       -0.38127324 0.40842673 -0.3405298 -0.27660856
000310 56 9e 23 3d 54 c1 7f be 3a 6c 4a 3d 76 5a 23 3d
       0.039945923 -0.24976093 0.04941962 0.039881192
000320 5c 3a d2 3e 7f 5c 33 be 31 e5 cf 3e 92 10 db 3e
       0.4106015 -0.17515753 0.40604547 0.4278608
000330 76 cb cc be d0 61 77 bd c2 55 e4 bd 50 4b a4 3e
       -0.39998978 -0.060396016 -0.111491695 0.3208871
000340 43 ed 12 3e f6 52 9e be b5 4a ac 3e 35 d7 c4 3e
       0.1434832 -0.3092267 0.33650747 0.3844544
000350 dd 41 8e 3c be 61 9a be 09 c6 d0 bd 12 d4 27 3d
       0.01736539 -0.30152696 -0.10194022 0.04097373
000360 25 1b 4f be 2b 40 b8 bd d6 35 b3 3b d0 ca 92 bc
       -0.20225199 -0.08996614 0.005469064 -0.017918974
000370 3e 1a ea 3c 1e 43 1e bf 35 ab 22 3e 93 c6 8e be
       0.028576966 -0.6182116 0.15885623 -0.27885875
000380 99 53 a6 be e2 a6 1a 3e 5b bb 2f bd f6 11 e1 be
       -0.32485655 0.15102723 -0.042903285 -0.43959016
000390 74 c9 73 be 8b 94 46 be aa e4 ed 3d d3 75 45 bd
       -0.23807317 -0.19392602 0.1161588 -0.04820807
0003a0 f2 05 26 be 3c 4a d3 be b7 a5 b5 3d f2 9c 85 bd
       -0.16213205 -0.41267574 0.08869498 -0.065240756
0003b0 df ec 7d be 57 82 c5 bd 6d d8 b9 be 4e e6 15 be
       -0.2479739 -0.09644001 -0.36297932 -0.14638636
0003c0 b7 a6 27 bd a6 bd 70 3e 94 97 52 3e ad ef 4d 3e
       -0.040930476 0.23509845 0.20565635 0.2011096
0003d0 5e 39 18 3e bf a5 ce be b0 2f 02 3d 6b ed 8b 3e
       0.14865634 -0.4036083 0.03178376 0.27329573
0003e0 04 5e b7 3e 29 cd 85 be 7f 46 8a be 7c 80 e8 3e
       0.35813916 -0.26133087 -0.2700691 0.45410526
0003f0 26 b6 69 be 24 4c 16 bf 8c 3f 96 be 44 f5 05 3e
       -0.2282339 -0.5870993 -0.29345357 0.13081843

arith.constant2 f4 [32, 3]
000000 be 8d 81 be 1a 09 02 3e 42 38 6b 3e 19 f2 ce 3e
       -0.25303453 0.12698784 0.2297068 0.4041908
000010 b4 91 e9 3e c4 b3 86 bd 0d af 00 bd c0 b8 82 be
       0.45618975 -0.06577256 -0.03141694 -0.25531578
000020 09 72 72 be a1 b2 67 be 35 2c 0e 3f b5 de 2e bd
       -0.23676313 -0.22626735 0.55536205 -0.04269286
000030 08 e2 a9 be 36 7d 16 be e0 a3 89 3d b2 87 15 bd
       -0.3318026 -0.14696202 0.0672071 -0.036506362
000040 fa 8f 0d 3e e4 f2 e8 be 93 67 03 3f 66 2d 87 3c
       0.13824454 -0.4549781 0.51329917 0.01650114
000050 28 7d ce 3e 44 0a 2d be b3 90 02 3f 3d cb 40 3e
       0.40329862 -0.16898447 0.51002043 0.18827529
000060 cf f0 f6 3c 34 49 2a bd c5 db cd 3e 3d eb a1 be
       0.030144123 -0.04157372 0.40206733 -0.31624785
000070 ed 61 cc 3e 46 61 7c be c8 aa b6 3e 64 da 85 3d
       0.3991846 -0.24646482 0.3567717 0.06535795
000080 4e f5 99 bc d4 c1 14 3f 79 ba 1e 3c 50 49 96 3e
       -0.018793728 0.5810826 0.009688013 0.29352808
000090 73 d5 a5 be d3 dc a7 be df c8 ab 3e 57 21 c3 bd
       -0.3238941 -0.32785663 0.3355169 -0.095278434
0000a0 7d 66 cb bd 56 70 b2 be 93 0e 75 be 72 d7 c8 bd
       -0.099316575 -0.3485133 -0.23931341 -0.09806718
0000b0 a8 1f b2 bd 20 1b 21 3e fd 8b b2 3e e1 86 e3 be
       -0.08697444 0.15733004 0.34872428 -0.44438842
0000c0 e4 7b 9f be 08 85 b8 bd 5e c2 e2 bd 07 51 e5 3d
       -0.3114921 -0.09009749 -0.11072229 0.11197095
0000d0 8b 50 e7 3e 28 8c 7e be 1f e9 85 3e 16 6b 7f 3e
       0.45178637 -0.24858153 0.2615442 0.24943194
0000e0 21 c7 97 3e 21 12 01 3f ec 59 a3 be 42 ad a0 bd
       0.2964411 0.5041829 -0.31904542 -0.07845546
0000f0 11 ed 48 3e 38 9f 8f 3e 60 ae 17 bf 51 72 53 bd
       0.19621684 0.28051162 -0.5925045 -0.051622692
000100 bd ce 16 3e 78 a2 26 3e 1f 0a 04 be a7 68 5f bd
       0.14727302 0.16272914 -0.12894486 -0.054543164
000110 77 a3 56 be 41 be 9a 3e 8d 15 de 3c fe 08 72 3e
       -0.20960794 0.30223277 0.027109886 0.23636243
000120 57 df 15 3e 60 5f 1b 3e 91 37 35 be dc 6e 52 bf
       0.14635979 0.15173101 -0.17696978 -0.8220041
000130 16 d0 36 3f 14 36 83 be f4 b7 3b be 5d 8e c5 3e
       0.71411264 -0.25627196 -0.18331891 0.38585177
000140 01 3e 10 bf 85 d2 de 3e b3 ab 1f 3e a9 c9 00 3f
       -0.5634461 0.4351999 0.15592842 0.5030771
000150 bb ab 4d be 67 a8 95 bd a9 b5 8c 3e 20 83 37 bf
       -0.20085041 -0.07307511 0.27482346 -0.71684456
000160 54 a0 8c 3e 94 ea 12 bf 30 b0 7a 3e 9e 5d 34 be
       0.2746607 -0.5738919 0.24481273 -0.17613837
000170 6f b3 aa 3c ca 29 1a bf 18 e9 86 3e ec 2c a9 be
       0.020837514 -0.60220015 0.2634971 -0.33042085

arith.constant3 f4 [3, 2]
000000 1d 08 0d bd fa c0 29 bd 7c da 0a 3f 1c a7 b4 be
       -0.034431566 -0.041443802 0.5423963 -0.35283744
000010 93 92 27 3d 0e 5d f7 3c
       0.04091127 0.03019574

arith.constant5 f4 [16]
000000 03 14 33 bd 59 4c 2f 3e 2a 28 49 bd 06 58 ad 3d
       -0.043720257 0.17118968 -0.04911057 0.08464055
000010 ba 8b 3c 3e 3b e4 69 bc 39 ae 55 bd ff 04 7a bd
       0.18412676 -0.014275606 -0.052168105 -0.06103992
000020 01 3d d9 3d bf 84 a5 3d 00 00 00 00 a0 04 81 3e
       0.10607339 0.0808196 0.0 0.2519884
000030 60 09 a2 3d 18 7a a2 3d 9a fc 9b bd f9 fa 38 bc
       0.079119444 0.07933444 -0.07616539 -0.011290305

arith.constant6 f4 [32]
000000 00 00 00 00 2f 62 db 3c 15 04 9f bc 88 06 24 3e
       0.0 0.026780216 -0.019411126 0.16018116
000010 11 61 d3 3b 95 eb a8 3d 90 6f 94 bd 63 79 87 3d
       0.00645078 0.08248059 -0.07247841 0.066149496
000020 5a cd 9a bc 08 07 09 3e 20 6f b9 bd b9 59 e7 bd
       -0.018896747 0.13381588 -0.090543985 -0.1129641
000030 8a 2c 4c 3c 06 59 32 bd fb cf 18 bc 1b d4 ca 3d
       0.012461791 -0.04354193 -0.00932693 0.09903737
000040 63 48 02 bc 0f 32 ce 3d 18 fc a2 3d e7 34 c3 bd
       -0.007951829 0.10068142 0.07958239 -0.09531575
000050 f4 a7 e3 3d 06 b9 b1 bc 0f 21 01 bd 10 3f 9c 3d
       0.11116019 -0.021694671 -0.031525668 0.07629216
000060 fe 25 ad 3d c0 fe 8b 3e 84 0f 0e 3e b6 ad d6 bd
       0.08454512 0.27342796 0.13873106 -0.104823515
000070 05 47 07 bc 03 53 9b 3e 6e ae 88 3d 42 45 96 3e
       -0.0082566785 0.3033677 0.06673895 0.29349715
