gacha_model.tflite (tflite, 5824 bytes, 6 tensors)

model_1/embedding_1/embedding_lookup f4 [3, 2]
000000 d0 cf e8 3b 49 84 4a 3d 18 64 71 be 89 05 82 be
       0.0071048513 0.049442563 -0.23573339 -0.25394848
000010 87 30 33 3d b2 1e 8a 3c
       0.04374745 0.01686034

model_1/dense_4/BiasAdd/ReadVariableOp f4 [16]
000000 21 e1 ce 3d 00 00 00 00 9b e3 a1 3d 26 6c e8 bc
       0.10101534 0.0 0.079047404 -0.028371882
000010 db 02 3b bd 0d 8b af 3d 5d 57 a0 3d 53 e3 d5 3d
       -0.04565702 0.08571444 0.07829163 0.10443749
000020 4a c2 e6 bc b3 f3 81 bc 43 5e df 3d 90 0d 8f bc
       -0.028168816 -0.015863275 0.10906651 -0.017462522
000030 6e ae a0 3d 8b 74 a6 3d 3d 26 87 bc 36 0d 65 3e
       0.0784577 0.081276976 -0.016497726 0.22368321

model_1/dense_3/BiasAdd/ReadVariableOp f4 [32]
000000 82 ac de 3d 00 00 00 00 00 00 00 00 aa b1 ba 3e
       0.10872747 0.0 0.0 0.36463672
000010 21 a7 0a 3e 0b 53 5d bc ba 22 c6 3d f2 66 3e 3d
       0.13540317 -0.0135085685 0.09674592 0.046484895
000020 ed 2c 0a 3e 6b 54 88 3e f1 ca 1a 3e 00 00 00 00
       0.134937 0.26626906 0.15116479 0.0
000030 00 00 00 00 00 00 00 00 d6 fe 21 3e 00 00 00 00
       0.0 0.0 0.15819868 0.0
000040 3c 8b 85 bd 00 00 00 00 bd 09 93 3d 8c 82 19 3e
       -0.065206975 0.0 0.07179592 0.14991206
000050 30 25 05 3e 72 36 ab bd ec a9 83 3e ec bd 08 3e
       0.13002467 -0.08359994 0.25715578 0.133537
000060 5b 87 e1 bc 01 f7 c4 3d ba b0 68 3e da 95 f4 3d
       -0.027530363 0.09617425 0.22723666 0.119426444
000070 8b 5c ea bd e6 1f f8 bc ec da 21 bc 13 15 cd 3d
       -0.114434324 -0.030288648 -0.009878855 0.10013785

model_1/dense_3/MatMul f4 [32, 3]
000000 03 c2 d8 3c 93 ee e2 be fe df 16 3d 92 1f 86 be
       0.0264597 -0.44322643 0.03683471 -0.2619596
000010 6c f2 cd 3d 30 2e e0 bc 3f 20 9b be 00 4d 95 bd
       0.10056004 -0.027365774 -0.3029804 -0.07290077
000020 79 ce 98 3e d1 f3 2d bf a3 04 3f bf 06 5c ad be
       0.29845026 -0.6795016 -0.7461645 -0.3385927
000030 03 67 b7 bd 37 9d 20 3e bd 86 51 bd cf 05 b2 be
       -0.08955195 0.15684973 -0.051153887 -0.34770057
000040 13 b1 a5 3e 51 11 94 be f0 c2 73 3d 78 51 bd bb
       0.3236166 -0.2891946 0.05951208 -0.005777534
000050 de 73 58 be bd c9 bd 3e 0d 51 d1 be 28 79 f5 bc
       -0.2113795 0.37067977 -0.4088215 -0.029964998
000060 41 fc dd bd 8d 92 b4 bd 33 94 12 3e fe 45 ee be
       -0.10839129 -0.08817015 0.14314346 -0.46537775
000070 cd 89 80 bd 5e 7e 15 bf be c1 aa be 04 24 13 bf
       -0.062762834 -0.58395946 -0.3335094 -0.5747683
000080 e6 13 11 bf a1 56 a4 be 34 25 78 be 32 3b 58 3e
       -0.5667099 -0.32097343 -0.24232942 0.21116331
000090 8c 71 b5 be 5c 6d 08 be e1 c6 b7 3e 63 c4 36 be
       -0.35438192 -0.13322967 0.3589392 -0.17848353
0000a0 a0 20 b7 bc dc c7 bc 3d 16 61 82 be a3 e2 f9 be
       -0.022354424 0.09217808 -0.25464696 -0.48805723
0000b0 25 42 ac bd e1 25 c7 be e9 02 a3 3e a7 45 8d 3e
       -0.084110536 -0.38896087 0.31838158 0.27592203
0000c0 33 d8 7c 3e 25 3c f6 bd ec 76 df ba d2 19 79 be
       0.24691848 -0.120231904 -0.0017048991 -0.24326256
0000d0 e5 9a 82 3e 82 b3 7a 3e ed b0 62 3e 89 74 8c bc
       0.255088 0.2448254 0.22137804 -0.017145412
0000e0 3a c7 a8 be 26 26 44 3e 27 03 e8 be fb ce 63 bc
       -0.32964498 0.19155177 -0.45314905 -0.013904328
0000f0 35 62 c6 bc 2d 0c e3 3d 94 be 5b be 6f 99 d5 3e
       -0.02421675 0.11086307 -0.21459419 0.41718623
000100 99 4b 32 3e 90 86 d7 3d fa fc 0e bf 20 ce c9 be
       0.1741165 0.10523713 -0.5585476 -0.39415073
000110 50 4a 26 bf 53 c9 28 be 42 3a 19 bf cc 9b 6e 3e
       -0.6495714 -0.16483049 -0.5985452 0.2330162
000120 6e 09 dd be 4a 3d 79 be 11 a7 48 3d 8a e8 e1 3e
       -0.43171257 -0.24339786 0.048987452 0.44122726
000130 1a 0f 4f be 70 d1 e7 be f4 3d d1 be fa cf e9 be
       -0.20220605 -0.45276976 -0.4086758 -0.45666486
000140 8e 38 27 be f1 c3 ad 3e 5b 8b aa be f6 f9 a0 bc
       -0.16330168 0.33938554 -0.33309445 -0.01965044
000150 59 c3 e3 3e 4e ed e5 bd 68 75 06 3e 45 10 b7 3c
       0.44484976 -0.11226903 0.13130724 0.022346625
000160 0c 17 4d 3e 6e 5b c3 bd 5c 3c 0e 3d 50 b6 90 bd
       0.20028323 -0.09538923 0.034725532 -0.07066023
000170 4d b9 62 3e fc 60 a5 3e 5c 05 7e 3e f9 f1 fd be
       0.22140999 0.32300556 0.24806732 -0.49598673

model_1/dense_4/MatMul f4 [16, 32]
000000 3e 2a 89 3e 9e 85 7d 3e 44 91 a0 bd a3 17 ad 3f
       0.2679004 0.24758002 -0.07840207 1.3522838
000010 d0 7e 68 3e 28 7e c6 3d be f7 4b 3e 85 1a f5 bd
       0.22704625 0.09692031 0.19918725 -0.11967949
000020 f1 ba c9 3e f3 48 4a 3f 47 bf 29 3f e0 a0 5f bd
       0.39400437 0.7901756 0.6630749 -0.05459678
000030 14 af b4 bd 74 cd bf bd 78 36 2b 3f 3b 97 94 3e
       -0.08822456 -0.09365359 0.6687999 0.2902163
000040 27 0d 82 bc 7a a1 6d 3e 1f f5 42 be a7 a2 54 be
       -0.015875412 0.2320613 -0.19038819 -0.20765172
000050 20 b2 ab 3e 90 0c 94 be 9d be 85 3f d9 93 90 3e
       0.33534336 -0.28915834 1.0448796 0.282378
000060 1f 95 2b be 93 34 23 be ca ca 6f 3f 7c c0 db 3d
       -0.16756104 -0.15938024 0.93668807 0.10730073
000070 cd 5e 08 bf 6c 58 17 be c8 a2 77 be 6b ce 19 3e
       -0.53269655 -0.14779824 -0.2418319 0.15020148
000080 ae eb 7e be 3c a1 f2 3d 44 5e 74 be b0 5e 0d 3d
       -0.24894592 0.11847159 -0.23864084 0.03451413
000090 76 2c 64 3e 05 88 2a be e9 6e 5e be 82 24 3e 3e
       0.22282586 -0.1665345 -0.21721996 0.18568614
0000a0 b8 03 06 3e 03 34 a5 3e db a8 4c be 34 80 b2 bd
       0.13087356 0.32266244 -0.19986288 -0.08715859
0000b0 26 29 33 3e eb c4 9c 3e 14 71 ce bd aa cc b3 be
       0.17496166 0.30618986 -0.10080162 -0.35117084
0000c0 12 6a 46 3e 82 3d 22 be e6 3a 1b 3e b0 a9 82 bc
       0.193764 -0.15843776 0.15159187 -0.015950054
0000d0 64 e0 7d be ed f6 7e be 7a d0 99 be 82 38 6c 3e
       -0.2479263 -0.24898882 -0.30041867 0.23068431
0000e0 a8 dc d9 3d 8f 63 b3 be 14 4d ad bd 78 14 13 bd
       0.1063779 -0.35036895 -0.08461967 -0.035908192
0000f0 57 bb ac 3e d0 5c 92 be 41 e2 8c 3e 65 17 a5 be
       0.3373668 -0.28586435 0.27516368 -0.3224441
000100 0c 07 49 3d 6f b5 aa 3e b4 ef 8b 3d 54 38 6c 3f
       0.049078986 0.33341548 0.06832829 0.9227345
000110 5a 7e b3 3b 9f fd ad be 72 59 d9 3d f7 c2 75 bc
       0.0054777088 -0.3398256 0.106127635 -0.0150000965
000120 02 a3 04 be a0 8d 81 3f ed 6e f8 3e 78 87 ae 3d
       -0.12952808 1.0121346 0.4852213 0.08521932
000130 49 cb 3f be 34 ad 05 3e 9e df 0f 3f 52 0f 37 3e
       -0.18729891 0.13054353 0.5620059 0.17876938
000140 c5 2f cd bd 4b 0c 55 be 0f 40 f7 bd 85 51 6d 3e
       -0.10018877 -0.2080547 -0.12072765 0.23175628
000150 3d 14 9e bd 7b a4 81 3d 60 68 4c 3f 1f 64 8f 3e
       -0.07718704 0.063302 0.79846764 0.28006074
000160 62 6a 8d be 77 70 36 3e f8 75 7b 3f d4 af 28 3d
       -0.27620226 0.1781634 0.9822688 0.041183308
000170 94 b6 1c bf 90 2c ba 3d 90 a8 c0 bc 3c bc 4c 3b
       -0.6121609 0.09090531 -0.023517877 0.0031240126
000180 b4 75 10 bc 95 d5 a4 3e b0 31 e0 3d 8d 7a 8f bf
       -0.008817125 0.321942 0.10946977 -1.1209275
000190 fb 83 8e 3e 8b 24 44 be cd dd 17 bd 01 c5 d0 3d
       0.27835068 -0.19154565 -0.03707676 0.101938255
0001a0 a4 1b 48 3e 9f 94 b7 bf 1c c5 9d be 90 14 8d be
       0.19541794 -1.434223 -0.30814445 -0.2755475
0001b0 f4 5a 83 3d d0 17 dd bc 2f 74 a8 be b8 2d 8c 3d
       0.06413832 -0.026988894 -0.3290114 0.06844658
0001c0 15 db 74 3d c6 50 47 3e 1f 42 42 3e 5d 8e aa 3e
       0.059779245 0.19464406 0.18970536 0.3331174
0001d0 a6 84 6b be 78 7a 1e 3d ce f6 ac bf 5b 0f 9f bd
       -0.2299982 0.038691014 -1.3512819 -0.07766601
0001e0 c8 98 f6 3c cf 8b ce 3e 2c ad 80 bf 60 37 8b bd
       0.030102149 0.4034104 -1.0052848 -0.06797671
0001f0 00 4e 13 3f ec 93 1f 3e 7e 18 31 bd 2f fa 6b 3e
       0.57540894 0.15583771 -0.04323625 0.23044656
000200 d1 ce 87 3e 98 93 92 3d d1 e6 9f 3e b6 6b 96 bf
       0.26524976 0.071570575 0.31230786 -1.1751621
000210 16 70 83 3e e8 3a c7 bd 55 d8 35 3d 1d 69 fa 3d
       0.25671452 -0.09728032 0.044395763 0.1222708
000220 8e dd 7c be e8 ca a3 bf 2c bc bd be 8e 80 47 be
       -0.24693891 -1.2796297 -0.37057626 -0.19482633
000230 83 cf 5f be 70 e1 e2 3d 80 83 74 3d bf ef a1 3e
       -0.21856503 0.11078155 0.05969572 0.31628224
000240 e2 61 e9 3e 30 7f 3c bd 06 4a b1 3c 1e 0b 84 3e
       0.4558249 -0.046019733 0.021641742 0.25789732
000250 07 a6 72 3e 56 e3 0c 3d c5 2b 93 bf 42 1b 9b bc
       0.23696147 0.034396492 -1.1497732 -0.018933896
000260 84 51 b2 3b 92 48 d4 3d 38 76 b4 bf 32 46 a8 3e
       0.0054418463 0.10365404 -1.4098577 0.32866055
000270 2c 2e 10 3e 2a f4 3e bd 38 f4 3d 3e 54 7b e4 3d
       0.14080113 -0.04661957 0.18550193 0.111563355
000280 50 b6 70 3d 57 ca 98 3e 1b f7 8e 3e aa 4b 62 3f
       0.058767617 0.29841873 0.27922902 0.88396704
000290 05 56 dc bd 51 5a 58 be 27 9f 9d 3e ff 67 18 3d
       -0.107585944 -0.21128203 0.30785486 0.037208553
0002a0 fa fb 99 3e 6f 00 bb 3e f8 33 08 3f e3 0a 86 3e
       0.30075055 0.36523768 0.532043 0.2618018
0002b0 6a 29 8e be 5f cd ac 3e 2f 3a 0e 3f 86 21 28 be
       -0.2776597 0.33750436 0.5555753 -0.16419038
0002c0 4e 7d 29 bd 17 00 67 be f0 c2 8b 3e c4 9a c9 3d
       -0.041379265 -0.22558628 0.27297163 0.09843972
0002d0 03 3d 65 be e2 22 7e be ad 25 a6 3f 2e e7 38 3e
       -0.22386555 -0.24817994 1.2980248 0.18056938
0002e0 45 69 a2 be 65 8b 9b 3e bf 30 dc 3e d5 1f 75 be
       -0.3172094 0.30379787 0.4300594 -0.23937924
0002f0 81 57 c0 be 3f 38 bd 3e 33 2a 91 be cd dc 36 3e
       -0.3756676 0.36956975 -0.28352508 0.17857666
000300 f5 85 d4 bd ef a0 46 be ea b6 25 be 7f 79 4a 3f
       -0.10377113 -0.19397329 -0.16183057 0.7909164
000310 60 3f 12 3e bc 3d a5 3e 09 23 34 3e 28 29 4a 3e
       0.14281988 0.32273662 0.1759149 0.19742262
000320 41 d6 51 3d 3a f7 13 3f f0 4e 10 3f 10 ec 8f bd
       0.05122972 0.5779911 0.5637045 -0.07027447
000330 30 3d cd 3c 86 37 36 be ea 5b ff bd 7a bb f7 bd
       0.02505359 -0.17794618 -0.12468703 -0.12096305
000340 1e 84 cd be 41 dc af 3e 46 e9 9b 3e 3b 72 d4 bd
       -0.4013986 0.34347728 0.3045141 -0.1037335
000350 18 f7 bb 3e c2 2c ca be ab 19 3f 3f 3c 51 83 3e
       0.36711955 -0.39487273 0.7464854 0.25647914
000360 4c 26 76 3e 05 51 dd 3d 69 9b 6f 3f 56 dc f7 3d
       0.24038047 0.10806469 0.9359651 0.121025726
000370 07 e0 f4 be f7 59 a3 be ce 6c 87 3e a3 9a 07 bc
       -0.4782717 -0.31904575 0.264502 -0.008276614
000380 53 5c ae ba 2c bb 05 be bc 95 8a be 9d 6f 0f 40
       -0.0013302661 -0.13059682 -0.27067363 2.2411873
000390 73 1d 02 3f 0c 2d 8f be d3 01 46 3e 84 ba 6a be
       0.50826186 -0.27964056 0.19336633 -0.22922713
0003a0 08 09 3d 3f 55 b4 ed 3f 58 9b 4d 3f 80 82 0a bb
       0.73841906 1.8570658 0.8031516 -0.0021134913
0003b0 18 2d 01 3d 00 97 1a 3d 2b d7 4d 3f 70 00 6f 3d
       0.031537145 0.03774166 0.80406445 0.058350027
0003c0 59 4b 70 3c f4 2b bc 3d a3 3b 53 3b 9f 47 7d 3e
       0.014666402 0.09188071 0.0032231591 0.24734353
0003d0 05 9c 82 3e dd af 1c bf b3 ad c4 3f 95 73 0c 3f
       0.25509658 -0.61205846 1.5365509 0.54863864
0003e0 35 28 70 be 74 3b af be fb f2 d4 3f 9c 1b 3a 3e
       -0.23452838 -0.34225047 1.6636652 0.18174595
0003f0 bf ca 40 bf 16 00 b2 be 25 d3 82 3e 54 70 21 3e
       -0.75309366 -0.3476569 0.25551715 0.15765506

model_1/dense_5/MatMul f4 [1, 16]
000000 aa 8b 7f bf 48 25 06 bf 78 a3 2c bf 76 de 0b 3f
       -0.99822485 -0.52400637 -0.67436934 0.54636323
000010 e0 d8 e2 3e 3a b7 96 be 8a 3e 1f bf 8a 87 42 bf
       0.44306087 -0.29436666 -0.622048 -0.75988066
000020 f4 c8 b7 3d 22 60 18 3f 0a 9d f6 be 9e 8f 08 3e
       0.08973876 0.5952169 -0.48166686 0.13336036
000030 58 f3 08 bf dc c9 0e bf 61 ea 13 3e f1 5b af bf
       -0.53496313 -0.5577676 0.14444877 -1.3699933
